model/hands_OAK.tflite (tflite, 5800 bytes, 4 tensors)

sequential/dense/BiasAdd/ReadVariableOp/resource f4 [21]
00000000: 8b36 de3e 34e4 0b3e 8418 e63e 8a5e 123e
00000010: 77ff 243d f1f0 b33e 50c2 513e 3a83 613e
00000020: 41f1 c73e 734c 1e3d 8314 4b3e 31d7 473e
00000030: 442c cabc cc28 843e 6675 bc3e d350 9b3e
00000040: 42e6 2abd bd24 f3bc 324c fa3e b4ee 203e
00000050: 2ee2 013e
0.43400988 0.13661271 0.4494058 0.14293876 0.040282693 0.3514476 0.2048428 0.22022715
0.3905125 0.038647126 0.19832043 0.19515683 -0.02467931 0.25812376 0.36808318 0.303351
-0.041723497 -0.029680604 0.48886257 0.15716058 0.12683937

sequential/dense_1/BiasAdd/ReadVariableOp/resource f4 [6]
00000000: b65f 91be 1a99 c3bc 8ab0 44bc 2eb8 683e
00000010: 5ac0 613c 724d a03d
-0.28393334 -0.023876715 -0.012004981 0.22726509 0.01377877 0.078272715

sequential/dense/MatMul f4 [21, 42]
00000000: cddc 943e fdd4 683f a108 743f f48f 8c3f
00000010: 1f10 7e3f 81ea fd3e 7022 f43e a93a 143e
00000020: e321 383e 207f d33e 76ab 253e 452b 3bbe
00000030: df97 283e aa45 23bf c331 34bf 6f75 13bf
00000040: 2cb2 0fbf 97b3 2cbf 7fd7 1dbf 7ea7 16bf
00000050: e90b 1bbf 8048 323c 03b0 34be 7c0d 013e
00000060: d13b 0dbe 4f29 45bd 1a90 ab3c 7e97 c9be
00000070: 9889 27bf 366e 7cbf c202 c43e 22b3 c6be
00000080: bc5a 97bf ba15 61bf a250 4bbd 80f8 1c3c
00000090: 59c6 dcbd d26f b4be 2a81 ec3e de00 c13d
000000a0: 1140 bbbe bf7e d2bd 181f 66be a84a 903e
000000b0: 9e63 a93e ee93 b63e 2c38 863f 7b1b c93d
000000c0: 0252 d8be 3677 dfbe 9ae8 86be b902 d63d
000000d0: f167 dc3e 29fd 7f3f c4a9 6b3f f352 103f
000000e0: 640e 93be e717 1abf b119 70bf 6812 e73e
000000f0: 2f0e 67bd 2800 2bbf 541c 26bf 84d4 d43d
00000100: 451d b93d 5664 b43c 871d 943d 5283 473d
00000110: 690c 213e f939 65be 78d8 3ebf 7374 5abf
00000120: b48a 0b3f 780a 773b aa2a 3cbf 617e 6fbf
00000130: ab2f 053f e24e 86be e032 01bf f531 3abf
00000140: 4c71 dd3e c09e 003d f6ae 1cbf 0b79 17bf
00000150: c823 cf3d 2737 513f 355b 8c3f 6f86 663f
00000160: 5d64 353f b2bc 953f 760b 573f 6be6 933f
00000170: e557 803f 98ab 2d3f c547 5ebf 0df6 2cbf
00000180: ebbd 48bf 3024 77bf bc16 7abf 652a 8dbf
00000190: 7419 9dbf e074 65bf f7d5 93bf 47d2 a4bf
000001a0: 7a85 80bf bc13 c4bd fbcf ecbd 1617 71be
000001b0: 67e9 a93d 0238 5cbd fc48 a73d a2e6 08be
000001c0: 6d4f cfbe 6687 a2be 190e ce3d 86c9 03be
000001d0: 48e6 b8be 017e dbbd bc55 a6be 7722 2bbf
000001e0: 152e 4bbf 3542 66bf f466 6abe 3a38 2cbf
000001f0: 8e50 f7be f0c0 83bf 5860 8a3d 391b 8c3f
00000200: 134f 853f c466 a1bd 6328 83bf ab6a b83f
00000210: ea82 473f 398c 453f 5f11 933f 4de3 0e3f
00000220: 46cb f5be 8e48 2a3f 32cb 733f d40a d0bf
00000230: c60e b2bf fe96 403d 2b32 cb3e 0ff6 c0bf
00000240: ff8e aebf 3ccc 11bf 56ba e63d 6008 5abd
00000250: aa89 9cbe ed39 f1be 697b 6fbe 270b 1abf
00000260: df96 4abf 7be8 f8be f166 b53d 7284 0c3f
00000270: b277 f3be 36ec 0fbf 640c 613e a794 233f
00000280: cde4 21bf 5705 11bf 9a6d 303f e42c 433f
00000290: 71b6 56bf 63ed 19bf dcb1 063f 66c4 783f
000002a0: 522d 77be c245 b3be 84ae 2dbf 9fa0 8abf
000002b0: ba36 a7bf b476 cd3c c817 3e3f b848 563f
000002c0: 5270 063f 78db 59bf e6cd 66bf 8cae 88bf
000002d0: 30b9 80bf d6ef 4cbf 02fb 853d 0693 843f
000002e0: a0df c53f 8cd5 3f3d 6cc3 0d3f 1a33 893f
000002f0: 12fd b13f 5a1f 2c3e 416b 0a3f 4cee 9a3e
00000300: 5d0a 0e3e 0c71 573e 699f c93e 3ed8 8fbe
00000310: 5eaa d9be 00d2 7bbf b71d d53d 3c6c 883d
00000320: 6808 22bf eed3 97bf bf89 043f 5c72 a5be
00000330: 885e 46bf 4050 4fbf 0b5a 0c3f 8895 83be
00000340: 285f afbe 87c2 1bbe 98e9 703d 6f5c ddbe
00000350: 1f79 31bf ad4e 31bf 9058 8abf 71a1 79bf
00000360: be45 1b3d f56b 0c3e dd61 21bd a20b 94bf
00000370: e336 90be 1ba0 7dbf 6b43 bebf 619e e63e
00000380: 7018 0d3f a34e 613f 33f3 593f 7d0b 523f
00000390: cfcc 273f d29e 5b3f 5a13 a23f d743 9d3e
000003a0: 095f 33be 55b3 cfbe e339 0dbf 0ce2 7ebd
000003b0: 008c 3cbf ddfa 17bf 21f1 cfbe d20e 3fbf
000003c0: 18d1 d3be e492 41bf 42e5 3abf f55a 4dbe
000003d0: 27bd d0bd 4c63 c0be f849 b93e f99d 833f
000003e0: 9e4d 98be b619 7fbe f9fd 4b3e 814d 5b3f
000003f0: 21e1 84be aed4 78bf 407f 57bf eb71 8ebf
0.29074708 0.90949994 0.95325667 1.0981431 0.9924335 0.49592975 0.47682524 0.14475502
0.17981677 0.41307926 0.16178688 -0.18278225 0.16464184 -0.63778174 -0.7038843 -0.57601064
-0.56131244 -0.6746153 -0.61656946 -0.5884932 -0.6056505 0.010881543 -0.17645268 0.126028
-0.1379235 -0.048135098 0.020942736 -0.39373392 -0.65444326 -0.9860567 0.38283354 -0.38808542
-1.1824565 -0.8792378 -0.049637444 0.009580731 -0.10780019 -0.35241562 0.46192294 0.094239935
-0.36572316 -0.10278081 -0.22472799 0.28181958 0.33083814 0.35659736 1.0485892 0.098196946
-0.42250067 -0.43645638 -0.26349336 0.10449738 0.4304805 0.99995667 0.92055917 0.5637657
-0.28721917 -0.6019272 -0.937892 0.4513123 -0.05641001 -0.66797113 -0.64886975 0.10392097
0.09038786 0.0220205 0.072321944 0.04870922 0.1572739 -0.22385396 -0.74549055 -0.8533394
0.5450852 0.003769545 -0.735026 -0.93552214 0.5202586 -0.26232058 -0.50468254 -0.7273248
0.432505 0.031401396 -0.6120447 -0.5916907 0.101142466 0.8172478 1.0965334 0.9004888
0.7085627 1.169821 0.84001863 1.1554693 1.0026823 0.67839956 -0.8682826 -0.67562944
-0.7841479 -0.9653959 -0.9769094 -1.1028563 -1.2273393 -0.8963146 -1.1549672 -1.2876672
-1.0040734 -0.095740765 -0.115631066 -0.23543963 0.08296471 -0.05376435 0.081682175 -0.1336923
-0.40490285 -0.31743926 0.10061283 -0.12869844 -0.3611319 -0.10717393 -0.32487285 -0.66849464
-0.7936719 -0.89944774 -0.22890836 -0.67273295 -0.48303646 -1.0293255 0.06756657 1.0945808
1.0414757 -0.07880929 -1.02467 1.4407552 0.77934134 0.7716709 1.1489676 0.55815583
-0.48006648 0.6651696 0.95231926 -1.6253304 -1.3910758 0.047018997 0.39686713 -1.5075091
-1.3637389 -0.5695226 0.112660095 -0.053230643 -0.3057378 -0.47114506 -0.23386921 -0.6017327
-0.7913646 -0.4861487 0.08857525 0.54889596 -0.47552258 -0.56219804 0.21977383 0.638987
-0.6323975 -0.5664877 0.6891724 0.7624037 -0.83872133 -0.6012785 0.5261514 0.9717468
-0.24138382 -0.35014158 -0.67844415 -1.0830268 -1.3063576 0.025081016 0.7425504 0.8370471
0.5251514 -0.8510051 -0.90157926 -1.0678267 -1.0056515 -0.8005346 0.065420166 1.0357368
1.545887 0.046834514 0.55376315 1.071872 1.3905356 0.16808835 0.54069906 0.3025993
0.13871141 0.21039218 0.39379433 -0.28094667 -0.42512792 -0.9836731 0.10406058 0.06661269
-0.63294077 -1.1861551 0.51772684 -0.32313812 -0.77487993 -0.80981827 0.54824895 -0.2570002
-0.34252286 -0.15210925 0.058816522 -0.43234584 -0.6932544 -0.69260675 -1.0808277 -0.97511965
0.03790831 0.13713057 -0.03939997 -1.156605 -0.28166875 -0.99072427 -1.4864324 0.4504271
0.55115414 0.88010615 0.8513672 0.8204878 0.6554689 0.85789216 1.2662156 0.3071582
-0.17516722 -0.40566507 -0.55166453 -0.062227294 -0.73651123 -0.5936716 -0.40613654 -0.7463199
-0.41370463 -0.7561476 -0.7300607 -0.20054229 -0.10192328 -0.37575758 0.36189246 1.0282584
-0.29746717 -0.24912152 0.19921102 0.85665137 -0.2595301 -0.97199523 -0.84178543 -1.1128515

sequential/dense_1/MatMul f4 [6, 21]
00000000: 44ca 64bf 763c f83d 45a1 55bf 590c 73bf
00000010: 1edd 7b3f d391 bd3d 230a 793f fcb3 6cbf
00000020: 8765 9bbf b475 943f a992 2e3f 158f 3fbf
00000030: d4b4 023e 34c3 77bf ba35 00bf b967 893f
00000040: a9ac c73d bb29 b0bd bda2 09c0 7afa 933e
00000050: 9ed0 9c3e 2140 103f 8f21 4b3f 7cbb 83bf
00000060: ceeb 8abf 6bcd e2be 6d5a 8c3e 715d 1ebf
00000070: 653e 8a3f 8450 98bf d447 a8bf 4dc7 623e
00000080: 8ddf 10c0 ce7e 033e 0d64 cd3e 6073 7fbf
00000090: b4d4 aebf d8ea afbd eee4 943e a248 9e3f
000000a0: 3a18 663f 9409 a13f c3ab 86bf 454e adbf
000000b0: 898a 6abf 30fb d9bf 4ca4 88bf 0aed 013f
000000c0: 711b 7d3f bef5 d43e 416b 36bf 0fc1 8ebf
000000d0: 0d8c 3a3e 753f e43f f937 db3c 6578 193f
000000e0: de2a ab3f fdd7 753f bbdb d13e ea0e f9bd
000000f0: 93f9 bf3f ac18 89be bd8e c2bf 8972 5e3f
00000100: 02dc 953f dcb8 963f 7389 10bf 878c 97bf
00000110: aafd b0bf 57f8 95be 5829 aebe 28ef 4c3e
00000120: 31e8 d13e f2a1 09bf 9e71 15c0 6113 4dbe
00000130: a690 dcbf 4a5c 0dc0 19e6 a3bf a4f7 b2bd
00000140: e8e8 51bd c661 a93e b022 2bbf 429a c1bf
00000150: f7b6 f83e ad66 19bf ac5b cc3e 0fbb 8b3e
00000160: fbd8 9d3f a1a9 303f f47a 8bbf 6099 debf
00000170: 842c 0bbf 560b edbd 0095 bfbf 85e2 08bf
00000180: fa2e 893e 76aa 933f 927d a73e b0ad b4bf
00000190: ea4e cabe 290c 0dbd 9415 d3bf cb5b a3bf
000001a0: 7c93 b43f 0257 febe 8fa8 8abf 8435 dd3d
000001b0: c90e a33f 8f8e e8bf 59ac 2fbf 2d6f 18bf
000001c0: 5190 4f3f 0022 613f ef21 b1bf ef62 d3bf
000001d0: c8f0 f13f af93 c7be ea6a 92bf 33b4 8f3f
000001e0: f2b1 483f 0556 f3bc 22c1 c5be 3856 1a3f
000001f0: bad1 bbbf b3ee 93bf
-0.8937113 0.12120907 -0.834492 -0.94940716 0.98384273 0.092563294 0.9728109 -0.92462134
-1.2140359 1.159842 0.68192536 -0.748277 0.12764293 -0.9678223 -0.5008198 1.0734779
0.09749729 -0.086017095 -2.1505578 0.28902036 0.30627912 0.5634785 0.7934808 -1.0291591
-1.0853212 -0.44297346 0.2741274 -0.6186133 1.0800291 -1.1899571 -1.314692 0.2214634
-2.2636445 0.12841341 0.40115395 -0.99785423 -1.3658662 -0.08589715 0.2908091 1.2365916
0.89880717 1.2581048 -1.0521168 -1.3539511 -0.9161764 -1.7029781 -1.067514 0.5075232
0.9887 0.41593736 -0.71257406 -1.1152667 0.18217488 1.7831866 0.026760088 0.5994933
1.3372457 0.96032697 0.40987954 -0.12161048 1.4998039 -0.26776636 -1.519981 0.86893517
1.1707766 1.1775165 -0.5645973 -1.183976 -1.3827412 -0.2929103 -0.34015918 0.20013106
0.4099746 -0.53762734 -2.3350596 -0.20026924 -1.7231643 -2.2087579 -1.2804595 -0.0873864
-0.051247507 0.33082408 -0.66849804 -1.5125201 0.4857709 -0.59922296 0.3991369 0.27291152
1.2331842 0.69008833 -1.0896897 -1.7390556 -0.543648 -0.11574428 -1.4967346 -0.5347064
0.26793653 1.1536396 0.3271299 -1.4115505 -0.39513332 -0.034435425 -1.649096 -1.2762388
1.4107509 -0.49675757 -1.083269 0.10801223 1.2738887 -1.8168505 -0.68622357 -0.5954464
0.81079584 0.87942505 -1.3838481 -1.6514567 1.8901606 -0.3897986 -1.1438878 1.1226867
0.78396523 -0.029704103 -0.3862391 0.6028781 -1.4673378 -1.155722
