hands.tflite (tflite, 6152 bytes, 4 tensors)

sequential/dense/BiasAdd/ReadVariableOp/resource f4 [21]
-0.18415974 -0.18097387 0.25844783 -0.07271803 0.0072529013 0.08346824 0.10259726 0.13514355
-0.07712528 0.007174997 0.37854123 0.14345798 -0.096125536 0.43225923 0.14300166 0.0409814
-0.061576158 -0.070380524 0.051990118 0.18352006 0.079454325
00000000: 5f94 3cbe 3751 39be 4653 843e 31ed 94bd
00000010: bfa9 ed3b 66f1 aa3d 831e d23d 1263 0a3e
00000020: dcf3 9dbd 3d1c eb3b 28d0 c13e a6e6 123e
00000030: 77dd c4bd 1551 dd3e 076f 123e 1ddc 273d
00000040: 4837 7cbd aa23 90bd 97f3 543d afec 3b3e
00000050: f3b8 a23d

sequential/dense_1/BiasAdd/ReadVariableOp/resource f4 [10]
0.13580972 0.049565 -0.01491128 0.051316835 -0.20859453 0.24335855 -0.26812258 -0.17690013
0.14806089 0.15770437
00000000: b411 0b3e ab04 4b3d 714e 74bc 9a31 523d
00000010: ce99 55be fc32 793e 5d47 89be 4f25 35be
00000020: 469d 173e 417d 213e

sequential/dense/MatMul f4 [21, 42]
-0.22676438 -0.06616604 -0.16406551 -0.03771392 -0.1500126 -0.11472149 -0.24226755 0.11045121
-0.3293241 -0.19530334 0.3106861 0.7543099 0.46651688 -0.2536743 0.30753908 0.22475006
0.26131064 -0.07347031 -0.20430373 0.04392342 0.12398258 0.16057733 0.3032895 0.15759453
0.55205846 0.28346613 0.19531105 0.12235104 -0.016517757 -0.3927903 0.18255241 -0.20557293
-0.7022683 -0.77451324 -0.087326996 -0.12745425 -0.15941037 -0.7916841 0.4911253 0.31871295
0.07684201 -0.35446405 0.18125814 -0.29394132 -0.24677952 -0.43639976 -0.6067798 -0.020063294
-0.18937571 -0.38082632 -0.2579581 -0.017363025 0.49702236 0.761145 1.079891 -0.37
0.24507782 0.42872196 0.42396078 -0.44141316 0.32854548 0.4005027 0.58983153 0.1311552
0.44832134 0.5377602 0.3058885 0.024936534 0.05528754 -0.1137526 -0.23273417 -0.2569759
0.032529876 -0.14787345 -0.3142016 0.010966867 0.43324468 0.1781004 -0.17225467 -0.49473083
0.16817376 -0.006900423 -0.2372916 -0.24630065 -0.23348454 0.14564012 0.42744148 0.23829457
-0.08104114 0.13632138 0.017020503 0.4367008 0.41552335 -0.620842 0.19500518 0.72364473
0.7365665 -0.59610635 -0.4862123 -0.13260853 0.12610881 -0.21613784 -0.6005601 -0.46938714
-0.2388358 0.12663612 -0.42442843 -0.23179774 -0.5428146 -0.4716443 -0.09475507 -0.011241345
0.5180326 0.6416505 -0.069765724 0.102991216 0.5350659 0.50596464 -0.21805589 -0.44538608
-0.21506774 -0.3546546 -0.4749635 -0.2374902 -0.12363503 0.001475834 -0.28886366 -0.09272095
-0.031468883 -0.5411219 -0.5424208 -0.10179353 0.063676566 0.10635239 -0.12001863 0.4147799
-0.15751947 -0.4053223 -0.79561484 0.39292392 0.03464962 0.19653913 0.5488824 0.273924
0.15565756 0.65125746 0.64707017 0.056972295 -0.1618655 0.31893972 0.35362795 0.3026572
0.21851125 0.10834392 -0.10442038 -0.34410557 0.06294275 -0.17703082 0.09356204 0.2865081
0.059184305 0.0353225 -0.49032742 -0.4728472 -0.13263477 -0.24139442 -0.53046817 -0.47032213
-0.26363412 -0.1914403 0.23928285 0.010801808 -0.06110389 -0.24038559 -0.1672174 0.011430908
-0.08542689 -0.03515457 0.06492493 -0.12454573 -0.017806504 0.2774914 -0.057131015 0.16037966
-0.14102556 0.109019525 -0.19101669 0.1003266 0.28502947 0.24665555 0.25484598 -0.36969477
0.029559698 0.12829253 0.004044095 0.2854603 0.18113206 0.2291705 0.21537225 0.16875553
-0.02798797 0.23105535 -0.10150323 0.16501774 -0.14722314 0.30786404 0.30143097 -0.09379237
0.23164317 -0.18267244 0.12476042 0.16110937 0.22458954 0.607113 0.50513375 -0.09890153
-0.44823962 -0.55136913 -0.6506867 0.019746803 -0.24505305 -0.1423911 -0.2978238 0.3149185
0.24003497 -0.49760082 -0.47124645 0.54235756 0.06793718 -0.43611175 -0.61899954 -0.20032613
-0.1682334 -0.064996734 0.12979962 -0.15230884 0.09629771 -0.034277085 0.18714528 0.5242693
-0.1486765 -0.019865125 -0.67854357 -0.5888866 -0.044308055 -0.20619725 -0.3617671 -0.31102407
-0.2642337 -0.07982208 -0.29193166 -0.5255164 -0.07213995 -0.056521345 0.13672073 -0.04673881
00000000: ec34 68be 1082 87bd ca00 28be e979 1abd
00000010: e79c 19be 1af3 eabd fc14 78be 3e34 e23d
00000020: 2b9d a8be 99fd 47be 4012 9f3e 741a 413f
00000030: 4ddb ee3e 99e1 81be c375 9d3e e124 663e
00000040: 82ca 853e 9a77 96bd ff34 51be 0be9 333d
00000050: 94ea fd3d 626e 243e c348 9b3e 7660 213e
00000060: b453 0d3f 7922 913e 9fff 473e 2f93 fa3d
00000070: 3f50 87bc cf1b c9be 05ef 3a3e b681 52be
00000080: dbc7 33bf 8046 46bf 7fd8 b2bd 5e83 02be
00000090: 793c 23be cfab 4abf c674 fb3e 582e a33e
000000a0: 585f 9d3d 507c b5be bc9b 393e 7a7f 96be
000000b0: c5b3 7cbe ca6f dfbe ec55 1bbf c75b a4bc
000000c0: b5eb 41be abfb c2be 1613 84be e73c 8ebc
000000d0: b779 fe3e 66da 423f de39 8a3f a470 bdbe
000000e0: aef5 7a3e 7281 db3e 6311 d93e e800 e2be
000000f0: 1d37 a83e b10e cd3e 33ff 163f 8c4d 063e
00000100: 608a e53e a7aa 093f 6b9d 9c3e b447 cc3c
00000110: 3075 623d 20f7 e8bd de51 6ebe 5892 83be
00000120: 0c3e 053d 236c 17be 08df a0be 60ae 333c
00000130: 3fd2 dd3e f45f 363e 8763 30be 5c4d fdbe
00000140: be35 2c3e f21c e2bb 92fc 72be 3d36 7cbe
00000150: 9216 6fbe af22 153e 9cd9 da3e 7e03 743e
00000160: e6f8 a5bd d597 0b3e 956e 8b3c 3f97 df3e
00000170: 7abf d43e 80ef 1ebf 70af 473e c840 393f
00000180: 9f8f 3c3f 6d9a 18bf d2f0 f8be 88ca 07be
00000190: ab22 013e 3d53 5dbe 4fbe 19bf 8353 f0be
000001a0: 5f91 74be e6ac 013e af4e d9be 635c 6dbe
000001b0: e6f5 0abf 5d7b f1be f20e c2bd 9e2d 38bc
000001c0: c99d 043f 3543 243f 55e1 8ebd 0fed d23d
000001d0: 14fa 083f e686 013f 0b4a 5fbe a509 e4be
000001e0: b83a 5cbe 4a95 b5be 6a2e f3be a230 73be
000001f0: 5d34 fdbd c670 c13a f0e5 93be 7be4 bdbd
00000200: 84e5 00bd f786 0abf 17dc 0abf 2079 d0bd
00000210: dc68 823d 48cf d93d 54cc f5bd 085e d43e
00000220: c94c 21be 6886 cfbe 6aad 4bbf 532d c93e
00000230: c3ec 0d3d 8e41 493e 8f83 0c3f c43f 8c3e
00000240: b264 1f3e cfb8 263f 64a6 253f c85b 693d
00000250: 12c0 25be 114c a33e b90e b53e e2f5 9a3e
00000260: 6ac1 5f3e 6be3 dd3d 5ada d5bd 9b2e b0be
00000270: 21e8 803d 9147 35be 749d bf3d 31b1 923e
00000280: 3e6b 723d 53ae 103d 320c fbbe 0719 f2be
00000290: 69d1 07be 1930 77be c3cc 07bf 10ce f0be
000002a0: 0dfb 86be ed08 44be 9006 753e 11fa 303c
000002b0: 1348 7abd a427 76be 0a3b 2bbe b448 3b3c
000002c0: 4bf4 aebd 3dfe 0fbd 5df7 843d d511 ffbd
000002d0: f2de 91bc 5a13 8e3e 3602 6abd 913a 243e
000002e0: 0169 10be a145 df3d e199 43be 0878 cd3d
000002f0: 62ef 913e 4693 7c3e 2c7b 823e a248 bdbe
00000300: 2e27 f23c 1e5f 033e 5484 843b da27 923e
00000310: af7a 393e acab 6a3e 8b8a 5c3e 40ce 2c3e
00000320: 0747 e5bc c699 6c3e ede0 cfbd 69fa 283e
00000330: aac1 16be 5ba0 9d3e 2955 9a3e 3716 c0bd
00000340: de33 6d3e 7c0e 3bbe 6482 ff3d dbf9 243e
00000350: cdfa 653e c26b 1b3f 7250 013f e38c cabd
00000360: aa7f e5be 8726 0dbf 6793 26bf 0cc4 a13c
00000370: 30ef 7abe f9ce 11be 5c7c 98be ff3c a13e
00000380: bacb 753e 89c5 febe 3747 f1be f2d7 0a3f
00000390: a622 8b3d 0a4a dfbe c176 1ebf 4b22 4dbe
000003a0: 6045 2cbe 021d 85bd 31ea 043e d9f6 1bbe
000003b0: bc37 c53d 2166 0cbd 03a3 3f3e 8336 063f
000003c0: a73e 18be 30bc a2bc 08b5 2dbf 46c1 16bf
000003d0: 5d7c 35bd 5f25 53be 8a39 b9be 8c3e 9fbe
000003e0: a449 87be c279 a3bd 1178 95be 3e88 06bf
000003f0: 1cbe 93bd ed82 67bd 8500 0c3e 3271 3fbd

sequential/dense_1/MatMul f4 [10, 21]
-0.78553545 -0.27403054 0.24079965 -0.6784135 -0.55015635 -0.52140033 -0.11029096 -0.87577003
-0.032986965 -0.042324737 0.4307687 -0.010716558 0.08139639 0.44287696 0.023025598 -0.55429876
-0.41042677 0.2430093 -0.6587277 0.46555686 -0.17552343 0.25998804 -0.28231463 0.6766696
-0.6448117 0.1109631 0.13776067 0.7701721 -0.61265624 0.32147312 -0.22098212 -0.2746558
-1.2258962 -0.1557529 -0.5633749 -0.6124988 0.6676765 -0.03281591 -0.3964992 -0.24621642
-0.3314306 0.05756101 0.26482004 -0.32446146 -0.24311009 -0.19068614 -0.015844902 0.11867416
-1.6709667 -0.3288628 -0.1874568 -0.28167906 -0.39363998 0.5295087 0.35248175 -1.1690173
-0.9858828 0.5112179 0.073259465 -0.31146547 -1.2370793 -0.60801935 0.06865489 0.06217687
-0.5513744 -0.9667125 -0.5436497 -0.34779552 -0.29313648 -0.9683398 -0.59187037 -0.05546087
-0.2931297 -0.05662698 0.04790418 0.81096894 -0.4548805 -1.0776628 -0.9557063 -0.4289213
0.09755214 0.6866406 -0.40958098 0.29923865 -0.69680715 0.24253456 0.79674214 -0.15219782
-0.20232825 -0.75143975 -0.59747523 0.8346377 -0.15879735 0.16288218 0.14365377 -0.07328953
-0.07543465 -0.75528604 1.1057625 0.37292233 -0.39597866 -0.35600924 0.13239467 -0.73303837
0.075389944 -0.3133971 -0.03478261 -0.62697905 0.5594059 0.34989426 -0.934241 0.050716467
0.17492402 0.098491855 -0.20268737 0.12885329 0.44567254 -0.6145714 0.5361639 -0.6913471
0.42101493 -1.5340946 -0.115539275 0.2540855 0.8599626 0.13597539 0.18784161 0.25368294
-0.25189295 0.5650422 0.3434909 0.12900305 -0.12742661 0.13372523 -0.28614214 -0.30695486
-0.92633814 -0.234123 -0.35311964 -0.68843 -0.6135733 -0.02694991 0.38826844 0.020883601
0.7170871 -0.7658611 -0.10456073 0.6952362 0.7308244 -0.30216044 0.46276802 -0.3624658
-0.6936146 0.11670799 -0.2123588 -0.26909456 0.34769815 -1.1634499 -0.17764251 -0.40934306
0.086267844 -0.45371762 -0.20039886 0.035913758 -0.3759319 -0.3364754 0.95321125 -0.60276395
0.60565436 0.19595452 -0.42817637 -0.63529605 -0.18774939 0.526658 -0.3051207 0.2949154
0.20992239 0.15277751 -0.9083216 0.1399344 -0.13817707 0.8300457 -0.49407947 -0.44137955
-0.9513972 -0.3139369 -1.0289614 -0.33304194 0.30531096 -0.84955126 -0.17317581 -0.65776074
-0.23434418 0.2894646 -0.29004064 -0.23912263 -0.48023295 0.22794205 0.29043332 -0.50848055
0.60253435 -1.0525737 0.6231846 -0.52363765 -0.1940806 0.9296669 0.030650115 0.13782653
-0.70043045 -0.2936279
00000000: da18 49bf bb4d 8cbe 2f94 763e 82ac 2dbf
00000010: 0cd7 0cbf 7e7a 05bf 3ae0 e1bd 7732 60bf
00000020: 571d 07bd b45c 2dbd b78d dc3e 8194 2fbc
00000030: 27b3 a63d c5c0 e23e 2ea0 bc3c 86e6 0dbf
00000040: 7523 d2be 6ed7 783e 61a2 28bf 785d ee3e
00000050: 6abc 33be 271d 853e 8b8b 90be 383a 2d3f
00000060: 6112 25bf 9f40 e33d 2211 0d3e 002a 453f
00000070: 0ad7 1cbf 2098 a43e 2349 62be af9f 8cbe
00000080: 2bea 9cbf b07d 1fbe 5639 10bf b9cc 1cbf
00000090: d9ec 2a3f fa69 06bd f101 cbbe 2820 7cbe
000000a0: 46b1 a9be 18c5 6b3d 7e96 873e d01f a6be
000000b0: daf1 78be 3a43 43be 2bcd 81bc 700b f33d
000000c0: 3de2 d5bf b460 a8be adf4 3fbe 3d38 90be
000000d0: 2e8b c9be e28d 073f 7d78 b43e 5ca2 95bf
000000e0: d162 7cbf 2ddf 023f 0f09 963d 6778 9fbe
000000f0: 9d58 9ebf 28a7 1bbf ef9a 8c3d 2cad 7e3d
00000100: df26 0dbf 787a 77bf a02c 0bbf 4112 b2be
00000110: fc15 96be 1ee5 77bf d184 17bf f02a 63bd
00000120: 1915 96be b1f1 67bd 2c37 443d a99b 4f3f
00000130: 19e6 e8be dbf0 89bf 2ba9 74bf 939b dbbe
00000140: 6bc9 c73d aec7 2f3f 99b4 d1be cf35 993e
00000150: f461 32bf fb5a 783e 4bf7 4b3f bfd9 1bbe
00000160: 232f 4fbe 5b5e 40bf 23f4 18bf d1aa 553f
00000170: c69b 22be 96ca 263e f919 133e d218 96bd
00000180: 7b7d 9abd 6d5a 41bf a089 8d3f adef be3e
00000190: b7bd cabe d846 b6be 7892 073e 67a8 3bbf
000001a0: 0b66 9a3d 9675 a0be 3678 0ebd b381 20bf
000001b0: 3a35 0f3f 5725 b33e 6b2a 6fbf 12bc 4f3d
000001c0: 481f 333e 19b6 c93d 478d 4fbe 1ef2 033e
000001d0: 312f e43e 8d54 1dbf 0a42 093f 20fc 30bf
000001e0: 458f d73e 365d c4bf db9f ecbd 7f17 823e
000001f0: 8226 5c3f 223d 0b3e 8d59 403e bbe2 813e
00000200: 1df8 80be 9ba6 103f 0ade af3e 6019 043e
00000210: 1f7c 02be 44ef 083e 3981 92be 3029 9dbe
00000220: 7f24 6dbf f1bd 6fbe 19cc b4be f33c 30bf
00000230: 2413 1dbf 0fc6 dcbc 1fcb c63e 1614 ab3c
00000240: 0593 373f 790f 44bf f023 d6bd 00fb 313f
00000250: 4f17 3b3f c6b4 9abe eeef ec3e 1e95 b9be
00000260: ba90 31bf 9904 ef3d 9674 59be c3c6 89be
00000270: 7e05 b23e edeb 94bf ebe7 35be 6a95 d1be
00000280: 32ad b03d ad4d e8be 5c35 4dbe 4e1a 133d
00000290: 257a c0be 8146 acbe a705 743f bd4e 1abf
000002a0: 2a0c 1b3f 4da8 483e ef39 dbbe c3a2 22bf
000002b0: 6041 40be 0fd3 063f c838 9cbe 27ff 963e
000002c0: e5f5 563e b571 1c3e c487 68bf f74a 0f3e
000002d0: 4a7e 0dbe e07d 543f fcf7 fcbe 80fc e1be
000002e0: c48e 73bf 56bc a0be 02b5 83bf 7984 aabe
000002f0: b851 9c3e 317c 59bf 0055 31be 0263 28bf
00000300: ecf7 6fbe b434 943e 3580 94be 90dc 74be
00000310: 18e1 f5be a469 693e adb3 943e c82b 02bf
00000320: b13f 1a3f bcba 86bf 0789 1f3f 1e0d 06bf
00000330: 11bd 46be a6fe 6d3f f315 fb3c 6622 0d3e
00000340: 694f 33bf 6556 96be
