motionrecognize.tflite (tflite, 19336 bytes, 6 tensors)

sequential_1/dense_1/BiasAdd/ReadVariableOp/resource f4 [2]
0.2418192 -0.24181917
00000000: 749f 773e 729f 77be

sequential_1/lstm_1/lstm_cell_1/BiasAdd/ReadVariableOp/resource f4 [64]
0.283425 0.23537247 -0.02097155 0.5765115 0.39978427 -0.012932091 0.30441216 0.25995442
0.53358465 0.26945984 0.11490545 0.28485394 0.28363636 0.34722713 0.27441552 0.59576535
0.89315206 0.9738999 0.97138053 1.2884921 1.3812705 0.9883833 1.2058429 1.1503569
0.9726557 1.1227851 0.93471223 1.072994 1.047791 1.1928927 1.1218845 1.4262311
-0.0032349012 -0.14540327 -0.013876037 -0.09483022 0.49478436 -0.020335067 0.41237563 -0.1055563
0.1302427 -0.10094722 -0.2466758 -0.13186133 -0.0917054 -0.09832355 -0.06869055 0.61597264
0.2505548 0.23267601 -0.021887919 0.5513163 0.29405475 -0.012070949 0.39645302 0.25307116
0.51957554 0.2780608 0.009080593 0.2617834 0.237591 0.35993278 0.24523789 0.36695886
00000000: 151d 913e 7b05 713e 87cc abbc 4296 133f
00000010: 86b0 cc3e 1fe1 53bc e9db 9b3e bf18 853e
00000020: 0199 083f a4f6 893e 8c53 eb3d 60d8 913e
00000030: c938 913e c1c7 b13e 3180 8c3e 1484 183f
00000040: 9da5 643f 8151 793f 65ac 783f 4fed a43f
00000050: 79cd b03f b006 7d3f 0f59 9a3f e53e 933f
00000060: f7ff 783f 6cb7 8f3f 4d49 6f3f de57 893f
00000070: 041e 863f b5b0 983f e999 8f3f be8e b63f
00000080: a300 54bb 98e4 14be 5158 63bc 5936 c2bd
00000090: 6054 fd3e ba95 a6bc e622 d33e e72d d8bd
000000a0: 585e 053e 6bbd cebd 9598 7cbe a806 07be
000000b0: 0ad0 bbbd db5d c9bd a2ad 8cbd 62b0 1d3f
000000c0: b848 803e 9f42 6e3e 4b4e b3bc 1123 0d3f
000000d0: 588e 963e 3bc5 45bc e4fb ca3e 8b92 813e
000000e0: e702 053f fc5d 8e3e c4c6 143c 7908 863e
000000f0: 0e4b 733e 1c49 b83e a41f 7b3e 08e2 bb3e

sequential_1/dense_1/MatMul f4 [2, 16]
0.30957726 -0.220459 -0.06609327 -0.43433452 0.8644697 -0.17806007 0.7079869 -1.0545099
1.2188742 -1.1142652 -0.40599218 -0.79942036 -0.49325818 -0.89667153 -1.0894451 0.21641012
-0.6354731 0.97717476 -0.2015025 1.2005787 -0.277625 -0.5103758 -0.29333374 0.9177371
-1.2063093 0.54896575 0.9101165 0.50853586 0.9439719 0.9839929 0.6212354 -0.91210276
00000000: e980 9e3e 01c0 61be e95b 87bd 1861 debe
00000010: e34d 5d3f 6155 36be a13e 353f 2efa 86bf
00000020: 1204 9c3f 3ea0 8ebf 35de cfbe d0a6 4cbf
00000030: 568c fcbe 448c 65bf f072 8bbf 9d9a 5d3e
00000040: 5dae 22bf 2028 7a3f ac56 4ebe 90ac 993f
00000050: dd24 8ebe fda7 02bf d72f 96be d2f0 6a3f
00000060: 5868 9abf 0589 0c3f 65fd 683f 682f 023f
00000070: 24a8 713f f5e6 7b3f 4809 1f3f 917f 69bf

sequential_1/lstm_1/lstm_cell_1/BiasAdd/ReadVariableOp/resource1 f4 [64]
0.283425 0.23537247 -0.02097155 0.5765115 0.39978427 -0.012932091 0.30441216 0.25995442
0.53358465 0.26945984 0.11490545 0.28485394 0.28363636 0.34722713 0.27441552 0.59576535
0.89315206 0.9738999 0.97138053 1.2884921 1.3812705 0.9883833 1.2058429 1.1503569
0.9726557 1.1227851 0.93471223 1.072994 1.047791 1.1928927 1.1218845 1.4262311
-0.0032349012 -0.14540327 -0.013876037 -0.09483022 0.49478436 -0.020335067 0.41237563 -0.1055563
0.1302427 -0.10094722 -0.2466758 -0.13186133 -0.0917054 -0.09832355 -0.06869055 0.61597264
0.2505548 0.23267601 -0.021887919 0.5513163 0.29405475 -0.012070949 0.39645302 0.25307116
0.51957554 0.2780608 0.009080593 0.2617834 0.237591 0.35993278 0.24523789 0.36695886
00000000: 151d 913e 7b05 713e 87cc abbc 4296 133f
00000010: 86b0 cc3e 1fe1 53bc e9db 9b3e bf18 853e
00000020: 0199 083f a4f6 893e 8c53 eb3d 60d8 913e
00000030: c938 913e c1c7 b13e 3180 8c3e 1484 183f
00000040: 9da5 643f 8151 793f 65ac 783f 4fed a43f
00000050: 79cd b03f b006 7d3f 0f59 9a3f e53e 933f
00000060: f7ff 783f 6cb7 8f3f 4d49 6f3f de57 893f
00000070: 041e 863f b5b0 983f e999 8f3f be8e b63f
00000080: a300 54bb 98e4 14be 5158 63bc 5936 c2bd
00000090: 6054 fd3e ba95 a6bc e622 d33e e72d d8bd
000000a0: 585e 053e 6bbd cebd 9598 7cbe a806 07be
000000b0: 0ad0 bbbd db5d c9bd a2ad 8cbd 62b0 1d3f
000000c0: b848 803e 9f42 6e3e 4b4e b3bc 1123 0d3f
000000d0: 588e 963e 3bc5 45bc e4fb ca3e 8b92 813e
000000e0: e702 053f fc5d 8e3e c4c6 143c 7908 863e
000000f0: 0e4b 733e 1c49 b83e a41f 7b3e 08e2 bb3e

std.constant5 f4 [64, 16]
-0.5453558 -0.8181119 0.115963526 0.11577163 0.23766568 -0.033287343 0.31051573 -0.4942229
0.07025166 -0.21807446 0.09264756 0.4442091 0.108565 0.48206466 -0.7048711 0.31917503
-0.6761993 0.09585393 -0.08160613 0.89250743 -0.33630574 0.012545075 -0.49975598 -0.6168925
-0.19550367 0.61387354 -0.6090403 0.2604974 0.089463815 0.09822662 -0.53048265 -0.0314123
0.074953645 -0.29081425 0.042190872 0.0544095 0.15272325 0.16724314 0.15275808 -0.06273223
0.14473887 -0.18213533 0.03240641 0.159502 0.14513047 0.004716201 -0.061924826 -0.11571545
0.0022467233 -0.1198866 0.10913706 0.07162381 0.01084044 -0.23932713 0.06220838 0.18836655
0.13737227 0.11808617 -0.06895114 0.4104676 -0.09423714 0.40695015 0.3002972 -0.036366727
-0.38293353 -0.58394086 0.16983135 -0.94509184 0.17863819 0.05183221 0.06287772 -0.83841056
-0.009657756 -0.7058304 -0.07447134 -0.51491535 -0.3612255 -0.90003425 -0.7772914 0.30056193
-0.014680407 0.110588975 0.03638816 -0.07524537 0.056688055 0.05759402 0.033343013 0.14959988
-0.10072909 -0.03912299 0.11495755 0.22085209 -0.1669349 -0.1135637 -0.04256001 0.13437824
-0.53753746 -0.5968644 -0.22443144 -1.0839174 -0.057516985 -0.0048278584 -0.21754074 -0.6355977
0.1934647 -0.7933572 -0.09208929 -0.62891346 -0.7194082 -0.8475009 -0.67852867 -0.13350089
-0.3266128 0.24524677 0.17774847 -0.011075989 0.26991218 0.21762508 0.35646567 0.36269492
0.26455036 0.19385202 0.3152185 -0.34088856 0.24443775 -0.30320987 0.29935083 0.34878874
0.17265916 -0.018757474 -0.0062016626 0.39148578 0.5849533 0.19973859 0.59895873 0.019952523
-0.01166421 -0.08511914 0.19152942 0.39118063 -0.05223209 0.46027035 -0.5618923 0.36476007
-0.1245516 -0.010610203 -0.19440287 0.23457861 0.26202872 0.016253412 0.46152014 -0.11208588
0.11540129 0.4603308 0.24745846 0.16346559 0.22237168 0.5923727 0.122279085 0.44921088
0.10257865 0.22487186 -0.232808 0.62171984 -0.06170791 0.077992044 -0.012805181 0.37008682
0.42090765 0.11682958 0.10225064 0.052045025 0.22017571 0.15129644 0.13172056 0.16556633
0.36081356 -0.31596988 -0.0453669 -0.25898144 -0.110425055 -0.2572802 -0.1026619 0.37616172
0.058083642 -0.29824516 0.42098254 -0.15483382 -0.114045836 0.30303964 0.22118804 0.2512896
-0.34836856 -0.26761973 0.08195356 0.25003004 -0.27931023 -0.09626314 -0.20511135 -0.55988896
0.09545187 0.11891108 -0.63190925 -0.09795336 -0.039079957 0.30259755 -0.7335625 -0.20350096
0.13383944 -0.34981444 0.0036650628 0.038555253 -0.07234348 -0.028439114 0.053314257 0.3906809
0.025989234 -0.33865613 0.23566432 -0.0025662333 -0.35013348 0.16929933 -0.024608692 0.31707898
-0.43418485 0.20015123 0.0296385 0.65508515 0.28103027 -0.04924718 0.27242517 -0.022058642
-0.28366226 0.30641535 0.20335464 -0.14523453 -0.051427145 -0.038193107 -0.019921832 0.3414834
-0.39651498 -0.59448934 0.08591674 -0.6805542 0.3024132 0.08487718 0.14025263 -0.5489881
-0.16084908 -0.4143138 -0.22569041 -0.5460492 -0.4403665 -0.8239108 -0.5954872 0.18726324
00000000: 709c 0bbf c86f 51bf 497e ed3d ad19 ed3d
00000010: a25e 733e 4f58 08bd ebfb 9e3e c90a fdbe
00000020: 1ae0 8f3d e94e 5fbe 01be bd3d 606f e33e
00000030: 5457 de3d 2ed1 f63e 6f72 34bf e96a a33e
00000040: 661b 2dbf 114f c43d 1d21 a7bd 5e7b 643f
00000050: 4430 acbe dc89 4d3c 04e0 ffbe abec 1dbf
00000060: 1d32 48be d126 1d3f 11ea 1bbf ea5f 853e
00000070: ce38 b73d 0a2b c93d b6cd 07bf 2faa 00bd
00000080: 4c81 993d 9be5 94be 56d0 2c3d 7fdc 5e3d
00000090: 7c63 1c3e c941 2b3e 9d6c 1c3e c179 80bd
000000a0: 6d36 143e af81 3abe 95bc 043d 7e54 233e
000000b0: 159d 143e 5d8a 9a3b e3a4 7dbd 39fc ecbd
000000c0: c33d 133b 1b87 f5bd 4083 df3d 81af 923d
000000d0: 1a9c 313c 2c12 75be 37ce 7e3d 29e3 403e
000000e0: 51ab 0c3e 29d7 f13d 4136 8dbd cf28 d23e
000000f0: 67ff c0bd c55b d03e 8ec0 993e 47f5 14bd
00000100: dd0f c4be 267d 15bf 45e8 2d3e 8af1 71bf
00000110: eeec 363e 034e 543d 09c6 803d 13a2 56bf
00000120: 913b 1ebc 4db1 34bf 6e84 98bd 7ed1 03bf
00000130: 8cf2 b8be a568 66bf 92fc 46bf 41e3 993e
00000140: 1786 70bc 797c e23d c00b 153d 3f1a 9abd
00000150: bc31 683d b5e7 6b3d af92 083d b630 193e
00000160: 0e4b cebd 6e3f 20bd dd6e eb3d 0d27 623e
00000170: fcf0 2abe 1694 e8bd 6853 2ebd 739a 093e
00000180: 0e9c 09bf 1bcc 18bf 5bd1 65be cebd 8abf
00000190: ee96 6bbd 0333 9ebb 00c3 5ebe 88b6 22bf
000001a0: 9c1b 463e 7519 4bbf 4f99 bcbd 7900 21bf
000001b0: 232b 38bf d2f5 58bf 0eb4 2dbf 75b4 08be
000001c0: cb39 a7be f821 7b3e b203 363e 1178 35bc
000001d0: ee31 8a3e 1cd9 5e3e ab82 b63e 26b3 b93e
000001e0: 2573 873e 2581 463e 5264 a13e f288 aebe
000001f0: e44d 7a3e 533e 9bbe 8344 993e 7094 b23e
00000200: 90cd 303e 46a9 99bc 5137 cbbb d370 c83e
00000210: 80bf 153f 4688 4c3e 5c55 193f 7973 a33c
00000220: 3e1b 3fbc f252 aebd 4a20 443e d448 c83e
00000230: 51f1 55bd 8ea8 eb3e 2cd8 0fbf d5c1 ba3e
00000240: e914 ffbd 6bd6 2dbc 8c11 47be 6035 703e
00000250: a128 863e e025 853c 5e4c ec3e 488d e5bd
00000260: 8357 ec3d 7bb0 eb3e c065 7d3e 8663 273e
00000270: 67b5 633e bda5 173f 756d fa3d f8fe e53e
00000280: c114 d23d cf44 663e 3865 6ebe 0829 1f3f
00000290: 6fc1 7cbd 4bba 9f3d d2cc 51bc 057c bd3e
000002a0: 3581 d73e 5944 ef3d c968 d13d 2a2d 553d
000002b0: be75 613e 74ed 1a3e c1e1 063e 388a 293e
000002c0: 8ebc b83e cec6 a1be a4d2 39bd 3799 84be
000002d0: 8826 e2bd 3bba 83be 6740 d2bd 4598 c03e
000002e0: 1de9 6d3d 97b3 98be 068b d73e c28c 1ebe
000002f0: dd90 e9bd 0328 9b3e 1e7f 623e 08a9 803e
00000300: 5d5d b2be 7405 89be 45d7 a73d f003 803e
00000310: c001 8fbe 9c25 c5bd b608 52be e254 0fbf
00000320: 457c c33d a787 f33d cec4 21bf c59b c8bd
00000330: 4e12 20bd 11ee 9a3e c1ca 3bbf 8e62 50be
00000340: 350d 093e e11a b3be 8d31 703b 1dec 1d3d
00000350: d228 94bd 25f9 e8bc 0d60 5a3d 5407 c83e
00000360: 60e7 d43c 5664 adbe fd51 713e 402e 28bb
00000370: b244 b3be ce5c 2d3e 2b98 c9bc 2d58 a23e
00000380: 7a4d debe 72f4 4c3e 71cc f23c a9b3 273f
00000390: 33e3 8f3e 69b7 49bd 507b 8b3e 53b4 b4bc
000003a0: 2e3c 91be 79e2 9c3e 333c 503e 5cb8 14be
000003b0: 45a5 52bd 6070 1cbd 1c33 a3bc ead6 ae3e
000003c0: 0304 cbbe 7430 18bf 1ef5 af3d cd38 2ebf
000003d0: e7d5 9a3e 16d4 ad3d 639e 0f3e 7c8a 0cbf
000003e0: 9fb5 24be f020 d4be 631b 67be e1c9 0bbf
000003f0: b877 e1be d1eb 52bf d971 18bf efc1 3f3e

std.constant6 f4 [64, 16]
0.09082193 0.40204057 0.11450171 0.2133777 0.58843213 0.4937822 0.37152395 0.43355837
0.473137 0.4546674 0.12175189 0.031771515 0.01595782 0.41427657 0.3348999 0.24189197
0.54329115 0.49425024 0.33160084 0.24719118 0.43180093 0.3186115 0.22786343 0.32118818
0.2950345 0.19357419 0.5727979 0.3655735 0.4789929 0.03721323 0.111615606 0.3006864
-0.22804046 -0.01370321 -0.255685 -0.27455023 -0.17190002 -0.15532663 0.21587692 -0.06293571
-0.014381407 -0.015931936 0.24422054 0.119299844 -0.15673058 -0.075658225 -0.15033096 0.24588965
0.3327144 0.5428725 0.49128637 0.26151612 0.7187124 0.5954848 0.49446854 0.84667295
0.6573756 0.67432976 0.28898606 0.55031735 0.5694061 0.37861857 0.47330904 0.65463513
-0.18772842 0.09603386 -0.13776584 0.084109575 -0.16300188 0.13807136 -0.13912728 0.014319958
0.29227293 0.2224029 -0.019779101 -0.22774658 0.20382912 0.40173376 0.35032058 0.10826062
-0.1413889 -0.006982186 -0.23558822 -0.15642278 -0.06196716 -0.21773244 0.08671402 -0.09132784
0.1576296 -0.010506875 0.2259053 0.19458342 -0.08219631 -0.14842276 -0.14353813 -0.2599176
0.038186684 -0.058887683 -0.2827132 0.029595409 -0.34766725 0.10876231 -0.21440195 -0.19307856
-0.2796147 -0.13875581 -0.0095113255 0.07454426 -0.1638513 0.26003355 0.046362195 0.11160268
0.40484962 0.45297092 0.13048533 0.18801616 0.3182218 0.56727266 0.14274979 0.6202462
0.54360944 0.029227883 0.13518651 0.04221457 0.22586426 0.010462103 0.1944875 0.3870342
0.45307183 0.6107358 0.45188674 0.32889143 0.08952099 0.36772117 0.3805792 0.32684398
0.07001873 0.42877203 0.5644958 0.08784326 0.20333485 0.36470586 0.5369843 0.24278925
0.41616982 0.10589552 0.69463336 0.18995258 0.451455 0.47386625 0.5878867 0.5797793
0.44247288 0.2549675 0.4449065 0.71659946 0.2536376 0.32067627 0.32244366 0.4674628
0.3026864 -0.12590288 0.44431216 0.42511675 0.1629184 0.4602306 0.2517612 0.049088884
0.15211637 0.41933557 0.45792332 0.08774993 0.047072668 0.45474166 0.12688789 0.29639572
0.44334692 0.24609214 0.4476754 0.051518597 0.13243988 0.5109908 0.43877167 0.33602503
0.46063897 0.12779081 0.2901556 0.13710448 0.0646434 0.50600106 0.15929827 0.19383007
0.25091076 0.32013914 0.17496026 0.55078006 0.29862142 0.18044823 0.3546802 0.18098733
0.4728879 0.43614763 0.3177088 0.44066697 0.018396856 0.32146242 0.18352625 0.36833435
0.13925576 0.4231586 0.32850912 0.43231872 0.26519606 0.23563422 0.3939931 0.7185825
0.70805293 0.69782484 0.41311955 0.3817215 0.12464691 0.54003686 0.5009967 0.19032772
0.18802561 0.63826966 0.27655372 0.29726192 0.34203416 0.4636913 0.49419284 0.4786623
0.21423447 0.60303414 0.22832626 0.28543743 0.50662225 0.21522897 0.085637465 0.47925895
0.21920705 0.28780544 0.36725685 0.37959516 0.21014877 0.16641633 0.44295222 0.30769187
0.25556517 0.2654422 0.38992178 -0.05503512 0.120550916 0.18905222 0.15628956 0.0647328
00000000: d900 ba3d 43d8 cd3e df7f ea3d af7f 5a3e
00000010: 7da3 163f 05d1 fc3e 6338 be3e 5dfb dd3e
00000020: 033f f23e 2aca e83e 0e59 f93d d922 023d
00000030: f9b9 823c 0f1c d43e 0078 ab3e 87b2 773e
00000040: 2115 0b3f 5e0e fd3e 96c7 a93e af1f 7d3e
00000050: 0315 dd3e 0c21 a33e 0855 693e c772 a43e
00000060: c30e 973e 5038 463e e2a2 123f 732c bb3e
00000070: 8f3e f53e e66c 183d b996 e43d 91f3 993e
00000080: 7083 69be 6e83 60bc 25e9 82be d991 8cbe
00000090: 8f06 30be f20d 1fbe d70e 5d3e 70e4 80bd
000000a0: fe9f 6bbc b183 82bc f314 7a3e 7a53 f43d
000000b0: fb7d 20be b3f2 9abd 5cf0 19be 7fca 7b3e
000000c0: 8b59 aa3e b1f9 0a3f e389 fb3e 71e5 853e
000000d0: 89fd 373f b171 183f fb2a fd3e 8fbf 583f
000000e0: c449 283f e0a0 2c3f fbf5 933e 99e1 0c3f
000000f0: 99c4 113f 4bda c13e 9055 f23e 2b96 273f
00000100: e13b 40be 67ad c43d 7d12 0dbe a441 ac3d
00000110: f7e9 26be 9462 0d3e 6277 0ebe 429e 6a3c
00000120: cca4 953e 96bd 633e c807 a2bc 6636 69be
00000130: 95b8 503e 0cb0 cd3e 385d b33e beb7 dd3d
00000140: 40c8 10be d2ca e4bb 0a3e 71be 4b2d 20be
00000150: 47d1 7dbd 41f5 5ebe 1f97 b13d 170a bbbd
00000160: a769 213e 0725 2cbc b853 673e e040 473e
00000170: 8a56 a8bd 23fc 17be a9fb 12be eb13 85be
00000180: a469 1c3d 3634 71bd c9bf 90be 1272 f23c
00000190: 7101 b2be c6be de3d 2f8c 5bbe 63b6 45be
000001a0: a829 8fbe 0116 0ebe 64d5 1bbc a9aa 983d
000001b0: a3c8 27be 1e23 853e 49e6 3d3d f28f e43d
000001c0: 7348 cf3e ceeb e73e f29d 053e 4f87 403e
000001d0: f8ed a23e c838 113f 002d 123e 74c8 1e3f
000001e0: fd29 0b3f 506f ef3c 556e 0a3e 2fe9 2c3d
000001f0: f648 673e 3e69 2b3c bb27 473e 5929 c63e
00000200: 08f9 e73e 2e59 1c3f b35d e73e 7564 a83e
00000210: c856 b73d f345 bc3e 47db c23e 1858 a73e
00000220: fb65 8f3d 0288 db3e cc82 103f 2be7 b33d
00000230: 0337 503e baba ba3e ce77 093f bf9d 783e
00000240: 3614 d53e c0df d83d 7ed3 313f ee82 423e
00000250: 1c25 e73e 999e f23e be7f 163f 6b6c 143f
00000260: ce8b e23e 1a8b 823e c9ca e33e 1073 373f
00000270: cadc 813e ae2f a43e 5617 a53e 4957 ef3e
00000280: b6f9 9a3e afec 00be e27c e33e e7a8 d93e
00000290: 15d4 263e 58a3 eb3e d8e6 803e 6d11 493d
000002a0: 65c4 1b3e 27b3 d63e ed74 ea3e 3cb6 b33d
000002b0: 45cf 403d e6d3 e83e e6ee 013e 2ec1 973e
000002c0: 5efe e23e 94ff 7b3e b635 e53e 2a05 533d
000002d0: 529e 073e 4bd0 023f aea6 e03e 790b ac3e
000002e0: dfd8 eb3e 98db 023e 468f 943e 1e65 0c3e
000002f0: c263 843d 4989 013f 161f 233e 647b 463e
00000300: 6077 803e 47e9 a33e c828 333e ecff 0c3f
00000310: e8e4 983e 6cc7 383e a598 b53e be54 393e
00000320: 5d1e f23e be4e df3e baaa a23e 1a9f e13e
00000330: 01b5 963c b996 a43e 4eee 3b3e 5296 bc3e
00000340: 1099 0e3e 3ea8 d83e 5932 a83e e158 dd3e
00000350: c7c7 873e 194a 713e 77b9 c93e 06f5 373f
00000360: f542 353f a6a4 323f 6884 d33e 0071 c33e
00000370: e146 ff3d db3f 0a3f 5241 003f 45e5 423e
00000380: c989 403e a465 233f 7398 8d3e b732 983e
00000390: 1a1f af3e f268 ed3e d806 fd3e 3a13 f53e
000003a0: 4860 5b3e 7260 1a3f 5cce 693e db24 923e
000003b0: ffb1 013f fc64 5c3e b262 af3d 6e61 f53e
000003c0: d077 603e 3c5b 933e 1709 bc3e 4c5a c23e
000003d0: 3d31 573e 0b69 2a3e a2ca e23e ca89 9d3e
000003e0: 70d9 823e 0ae8 873e d4a3 c73e 826c 61bd
000003f0: 66e3 f63d e896 413e 5f0a 203e a192 843d
